notebooks/outputs/mnist_conv_simple/checkpoint.pt (torch, 337845 bytes, 15 tensors)

down1.0.weight f4 [16, 1, 3, 3]
00000000: 2ce7 083a 747d c4bb bd16 a43b 66cb 6fbb
00000010: 643a 14bf fb57 143f 4fa8 9839 3087 f9bb
00000020: 8e4f 693c f0f8 ad3e cfb3 8dbe 7209 433c
00000030: 515c 8fbe 8dc0 273e d463 74bb b2fd df3b
00000040: c53d f8bc abeb 13bc fb48 063d 405a bb3d
00000050: a390 753d eef5 bb3d b3fc f53e 995a a93d
00000060: 4e04 653d f6a4 b33d 1135 a33c 789e aaba
00000070: 057b 9f3b 3c6a 34bb 8a1e 7a3c 8e42 073f
00000080: ba73 873c 4a32 69bc 47d2 05bf 564d 39bc
00000090: 1ed4 b83b 9d12 56bc ec72 cf3b 574c 6bbc
000000a0: cec1 2dbf 8b31 8dbc 25f1 9d3b caa3 1cbc
000000b0: 6e80 b43b a43b 22be bdbb f33d f4b0 47bc
000000c0: b90b 043e ca26 b1bd 6d2e 8dbb 504a 12bc
000000d0: 9026 9c3b de4a 4ebb e952 873d 421d 9b3d
000000e0: 745e ae3d 71c0 8f3d 9eaa cdbc 3112 38bc
000000f0: b4fb 9d3c f9b1 3abe eaa5 5bbe ca39 a0bb
00000100: 5dae d53b 4e64 6fbb 484f 0f3b f657 d03e
00000110: 7265 cfbe 4ced 89bb 9cda fb3b 1db1 23bc
00000120: 3162 5cbc 7be9 84bd 80af f0bc 6770 8dbd
00000130: f0f3 08bf 9699 80bd f587 e0bc bf09 50bd
00000140: 6ce6 74bc c403 95bd 758c d0bd 7760 92bd
00000150: ac66 00be 6412 c0bd 3552 f7bd 66e7 a3bd
00000160: b6e2 debd 3523 84bd b085 27bc 42e4 c13d
00000170: e524 de3c 3d5b bf3d 54fc 323f f536 d73d
00000180: c100 033d 873f d53d 3c8d 51bc 1d66 18bc
00000190: 101f 4e3c 9554 0fbc f564 683c 13c3 273f
000001a0: 4fc2 7f3c d043 e1bb cfd8 023c 5846 e1bb
000001b0: 1820 163b 7600 a6bb 311a 9b3b 5f0c 2ebb
000001c0: 0651 c2be c239 84bc 6fb6 e0ba a003 d6be
000001d0: 9801 0d3c 9a67 afbc c5af 2b3d 0a25 ea3d
000001e0: e5da 5bbd b904 8fbb b969 bc3d f579 b9bd
000001f0: ed38 9dbd da55 46bc b2e5 193e 9094 7e3d
00000200: a6ca 0e3e fdb8 f93d 1b5d 80be 72d9 003e
00000210: d5d8 153e 1bc5 9e3d 1f06 423d f096 a03b
00000220: 7cdc 09bb d1c5 f1ba 1755 b3ba d24f afbd
00000230: acbb 623e 9640 3938 356c 8fbc f71a 1dbf
0.00052224356 -0.0059964005 0.0050075934 -0.003658974 -0.579016 0.5794675 0.000291171 -0.0076149926
0.014240159 0.33978987 -0.27676246 0.011904107 -0.2800012 0.16382046 -0.0037290948 0.0068356628
-0.030302892 -0.009028356 0.032784443 0.09148073 0.05995239 0.09177767 0.48044357 0.08269233
0.05591231 0.08771698 0.019922765 -0.0013017198 0.00486696 -0.002752914 0.01526607 0.5283593
0.016534675 -0.014233181 -0.5227398 -0.011309942 0.0056405207 -0.013065961 0.0063308384 -0.014361463
-0.6787385 -0.017235538 0.0048200064 -0.009560535 0.005508474 -0.15843064 0.119010426 -0.012188185
0.12895097 -0.086499766 -0.004308513 -0.00892885 0.004765339 -0.003147773 0.06607611 0.0757394
0.08514109 0.07019127 -0.02510577 -0.011234806 0.01928506 -0.18231954 -0.2145001 -0.0048897015
0.00652103 -0.0036528292 0.0021867324 0.4069211 -0.40507084 -0.004209196 0.0076859724 -0.009990958
-0.013451145 -0.06489845 -0.02938056 -0.06906205 -0.5349722 -0.06279294 -0.02740858 -0.050790545
-0.014947515 -0.07276109 -0.1018304 -0.071473055 -0.12539166 -0.09378508 -0.120762266 -0.0800312
-0.108830854 -0.06452028 -0.010224745 0.09467365 0.027117202 0.09343574 0.6991627 0.10508529
0.03198314 0.104125075 -0.012790021 -0.009301689 0.012580648 -0.008748193 0.014184226 0.65532035
0.015610292 -0.006874539 0.0079862615 -0.0068748407 0.0022907313 -0.005065973 0.004733347 -0.0026557667
-0.3795244 -0.016140822 -0.0017144213 -0.4179964 0.008606337 -0.021411706 0.041915674 0.11432846
-0.05367555 -0.0043645767 0.091998525 -0.090564646 -0.07676873 -0.01210543 0.15029028 0.0621534
0.13944492 0.12193487 -0.25071034 0.12582949 0.14633496 0.07752439 0.04736912 0.0049008057
-0.002103596 -0.0018445795 -0.0013681975 -0.085601464 0.22141904 4.4167587e-05 -0.017507652 -0.6136927

down1.0.bias f4 [16]
00000000: 1559 b43c 1da2 8dbd 822b c43e 02df 093d
00000010: 6706 33bf 64c0 d83c 57ba 0bbd ea73 973c
00000020: ea52 24bf 3e1d 03be 5c23 3bbf fac8 303f
00000030: 3e63 4bbf 7f3b b63b 9706 b53d f0ae 01bf
0.022015134 -0.06915686 0.38314444 0.033659942 -0.69931644 0.026458926 -0.034113254 0.01848789
-0.64189017 -0.12804124 -0.7310083 0.69056666 -0.79448307 0.0055612917 0.088391475 -0.5065756

down1.2.weight f4 [32, 16, 3, 3]
00000000: d116 e1bb 7535 a73c c845 a53c 4f0d acbb
00000010: 0c6a 2bbd 773f a33d b569 1abd 467a 3c3d
00000020: 50a8 be3d eeb3 953b 588e bdbc 576e f5bc
00000030: 9d0f 003b f176 2a3d 7f32 943c 8298 01bc
00000040: 8f16 bbbb 4443 823d dcf1 55bb 6aa9 febc
00000050: 73fa 3fbc b65b f03c 7fdb 94bc b564 a43d
00000060: 546b 87bd 8d21 5dbb 481a 7d3d 06f9 a23c
00000070: 4b53 4a3d f1c1 8e3c e5d1 483c 8678 d63c
00000080: 03c0 6d3d 1250 883c 2d74 f83c 3288 693d
00000090: bbbd c13d dd09 78bd a511 f0bc 2e95 083c
000000a0: e10b 823c 0aa5 063e a9a6 07bc eebc 4cbd
000000b0: b88e 133e f547 1bbc c534 5c3d 7558 0bbc
000000c0: 8bc2 0a3d 5628 95bd b927 d73d e5fb df3c
000000d0: 5c2a 883d bf72 d33d ba2e e5bc 436c 353e
000000e0: 924d fd3d 198c f53d ef55 713e eafb 0c3e
000000f0: efe7 6b3d 1e19 adbc a2cd 9ebc 283a 363c
00000100: 5503 b8bc 872d 13bd b90e 89bc d55c 3c3d
00000110: 675f 0ebd d446 913d e51b afbc 5a92 bf39
00000120: 65dc 01bc 6cce 8a3d 3c41 6a3d 2330 9d3d
00000130: 9e3e dd3d 39f3 523e 1734 d93d 3240 df3d
00000140: 9154 ad3d ff03 25bd 88c8 9abc 1226 463c
00000150: ef87 03bd 3f32 c3bd f490 0ebd 9c76 5ebd
00000160: 0a63 323d 8ebc 53bd e988 ab3c b696 a33c
00000170: a3ec b43b 7c3a 7ebd ef1d 7c3c 454d de3d
00000180: 2e44 79bd 2742 fbbc 8e25 29bd 7095 02be
00000190: dcfa c9bc e306 c1bc 0692 f4bc ee91 0a3d
000001a0: 437e 90bd 42e3 5dbd 518c af3d 5775 7ebd
000001b0: a245 d93c a878 9b3d 3d55 e5bc d889 cb3c
000001c0: 125e 613d 3c65 9e3d 32a0 003b dc99 0f3d
000001d0: 4bfd 713d feb1 c9bc dfe1 74be a7d6 14be
000001e0: 30be 9abd d72f 5dbe 2c5d c2bd ceeb 09be
000001f0: 2443 37bd d136 76bd 549a 47bd 227b b0bd
00000200: fc46 32bb 2bfe b2bb fdb3 cf3d 10d4 e23d
00000210: a2e8 0fbb bc99 153e fd3e 8c3d 1ed4 27bd
00000220: d41d ffbc 4f6c acbc 8196 98bd 0b9e acbc
00000230: 46b3 41bc c1d0 0fbd d134 14bc 4d88 1d3d
00000240: 0947 9f3d 4de7 b43c 15dc ca3c 3e98 4e3d
00000250: 9cde 3d3d 4342 813b 9df4 0e3d a554 d3bd
00000260: 640a b33b 0e65 ddbd b230 babd 3c51 d4bd
00000270: e5f0 aebd edd4 8cbd f469 7fbe a548 b0bd
00000280: e072 97be 95ea 76be fe5d 353e 7718 343e
00000290: 5d3a b93d ff6d 623e 6660 51bd e0ce d23d
000002a0: 15b5 623e c87e 783e 187b 5d3e 3d60 90bd
000002b0: 122c a1bd 70bb a7be e6d6 14bd 0ea7 4e3c
000002c0: c54b 3fbd 672d 443a 9144 043d 76c6 843d
000002d0: 69ae 63be 5210 e4be 8977 6bbe 7985 ecbe
000002e0: 4210 c1bf 4a2e 95bf dd4e bdbe bc0e 4bbf
000002f0: a9a5 30be 812a b1bd fa3f 6cbd 5749 15be
00000300: 10e2 5bbd 79d6 5abd 3739 ae3d dd2b abbd
00000310: f946 943e d784 4e3e a521 433e 870c 033e
00000320: f86c e7bc 34bd 053e d02f 213e c06c d839
00000330: ddac aebb 2e61 f03c 5c04 743d e2b4 9dbd
00000340: 099f 113c 6db8 b0bd 724b 9dbc 9184 0bbe
00000350: 78bd 48bd 7bfc 06be 5186 45bd f75d 12bd
00000360: fa70 9f3d 296b 853e d927 113e d323 973d
00000370: a32b 3bbd 7fc0 8abe 2f47 933e bc09 e13e
00000380: 7ec8 793e 473d 443c 9bb1 703d 620d 2c3c
00000390: d986 4f3d ff32 85bd d723 803d 5a4a c2bd
000003a0: 21b6 7dbd 9019 633d bbcc 3cbc c2f4 46be
000003b0: 25e7 103d 8bd5 063d 0994 3a3e 0c68 ba3d
000003c0: 8e7c 693b 713f 4fbd d6cd a03d 5130 48bc
000003d0: 1329 7abd bb17 88bd 3284 aebc 4757 05be
000003e0: b56b 27be 396b 35be d1c3 5fbe c817 c8bd
000003f0: 73e1 2ebe 507e 1dbf 548b 03bf 4710 c3be
-0.006869175 0.020411232 0.020174876 -0.00525061 -0.04184918 0.07971089 -0.037698466 0.046015047
0.09309447 0.0045685684 -0.023139164 -0.02995984 0.0019540556 0.041617338 0.018090485 -0.007909896
-0.0057094763 0.06360486 -0.003264538 -0.031086642 -0.011717427 0.029340606 -0.01817107 0.08027021
-0.06612268 -0.0033741922 0.061792642 0.019894134 0.04939584 0.017426463 0.012257074 0.026180517
0.058044445 0.016639743 0.030328834 0.05701465 0.09460016 -0.06055628 -0.029305289 0.008336348
0.015874805 0.13148895 -0.008279481 -0.049984865 0.14409912 -0.009477605 0.053761262 -0.0085049765
0.033876937 -0.07283084 0.10505623 0.027341792 0.066487044 0.103246205 -0.027976383 0.1771708
0.12368311 0.11989612 0.23567937 0.13767973 0.057594236 -0.02113014 -0.019385163 0.011122264
-0.022462526 -0.03593209 -0.016730653 0.04598697 -0.03475895 0.070935875 -0.021375606 0.000365394
-0.007926081 0.06777653 0.05719112 0.07675197 0.10802959 0.20600595 0.106056385 0.10900916
0.084633954 -0.040287014 -0.018894449 0.012094038 -0.03211206 -0.09531068 -0.034806207 -0.054312333
0.043551482 -0.05169349 0.020939307 0.019969326 0.0055213734 -0.062067494 0.015387996 0.10854582
-0.060856037 -0.030671192 -0.04129558 -0.12752318 -0.024655752 -0.023562854 -0.029854786 0.033830576
-0.070553325 -0.054171808 0.08571685 -0.062123623 0.026522461 0.07591373 -0.027994746 0.024846002
0.055021353 0.07734153 0.0019626734 0.03505884 0.05907945 -0.024621006 -0.23914288 -0.14535008
-0.07555807 -0.2160028 -0.094904274 -0.13468859 -0.044741765 -0.06011087 -0.048731163 -0.08617236
-0.0027202955 -0.005462428 0.10141752 0.11075604 -0.0021958728 0.14609426 0.068479516 -0.040973775
-0.031142153 -0.02104774 -0.07450581 -0.021071455 -0.011822527 -0.035111193 -0.009045796 0.038460065
0.07777221 0.022082949 0.024763146 0.05043816 0.046354875 0.0039446666 0.03490125 -0.10318879
0.005463885 -0.1081029 -0.09091319 -0.10367057 -0.08542041 -0.0687655 -0.24942762 -0.08607606
-0.2957983 -0.24112923 0.17711636 0.17587458 0.09044335 0.22112273 -0.051117323 0.102933645
0.2213939 0.24267113 0.21628988 -0.07049606 -0.07869734 -0.3276019 -0.036337756 0.012613071
-0.04670312 0.0007483572 0.032291953 0.06483166 -0.22234501 -0.445437 -0.22994818 -0.46195582
-1.5083086 -1.1654751 -0.3697423 -0.7931936 -0.17250694 -0.08650685 -0.0576782 -0.14578758
-0.053682387 -0.053427193 0.085070066 -0.08357976 0.28960398 0.20167862 0.19055803 0.12797748
-0.028250203 0.13060457 0.15740895 0.00041279756 -0.0053306655 0.029343214 0.05957447 -0.07700516
0.008888015 -0.086289264 -0.019201014 -0.13624789 -0.049008816 -0.13182251 -0.048223797 -0.035734143
0.077852204 0.2605832 0.14175357 0.0737988 -0.045695912 -0.27099988 0.28765246 0.4395274
0.24392888 0.0119775 0.058763128 0.010501238 0.05066571 -0.06503867 0.06256836 -0.09486838
-0.06194127 0.0554443 -0.011523421 -0.19429305 0.035376687 0.032918494 0.18220533 0.091018766
0.003562722 -0.05059761 0.0785176 -0.012218551 -0.061074328 -0.06645151 -0.02130327 -0.13021575
-0.1634968 -0.17716683 -0.21852042 -0.09770161 -0.1707819 -0.6152086 -0.5138447 -0.38098356

down1.2.bias f4 [32]
00000000: e938 733e be83 5c3e ee30 313e 48e6 353e
00000010: 036c 253e 86ee 013d 7579 7f3d 3a69 fa3c
00000020: f53b 5e3e 925c 4e3e 28e1 d63d e816 d83d
00000030: 03cf 8d3d 5da0 953e 5d5e 5ebe b036 cc3d
00000040: e98a ee3c 2ad7 4b3d 46bc 3a3e c615 6e3d
00000050: 393e 6b3e ac16 ce3d 6bb3 193e b973 293d
00000060: 841e 5e3d 1408 84bd bd08 4e3d fb95 0cbc
00000070: 8fae cc3d 2faa 433e c9fd d23d edb3 3cbc
0.23752178 0.2153463 0.17303821 0.17763627 0.16154484 0.031721614 0.06237169 0.030567754
0.2170256 0.201525 0.10492164 0.10551244 0.0692425 0.2922391 -0.21715684 0.09971368
0.029118972 0.049765743 0.18235883 0.058126234 0.22972955 0.10062918 0.15009849 0.041370127
0.05422832 -0.06446853 0.050301302 -0.00858068 0.09994232 0.19107889 0.10302312 -0.011517507

down2.0.weight f4 [32, 32, 3, 3]
00000000: 5bfc 713c d4ef 51bd 7fac 1bbd 6258 96bc
00000010: f326 f8bc 2fbb b1bd 2069 9d3c 4c42 b7ba
00000020: 9521 d23c b8c6 bebb a687 f43c b2ac 45bc
00000030: d811 1e3d fa85 51bd 5cef 8ebc 6e6c fa3d
00000040: 58c2 883d 04fa 3cbc f3bc c5bc cec7 d13c
00000050: d6e9 35bd a08f d8bb c389 ff3c eb3b 41bd
00000060: 5b40 7e3d 77d1 543d 5b1a 53bd 26e4 1a3d
00000070: 1695 c33c ad88 12ba 54e6 453d b026 b93d
00000080: 55a8 2e3d 3e97 823c 5986 a23d 968c 963c
00000090: a8a3 45bc 1f2b e63d e2cc 2fbd c520 76bd
000000a0: 8843 a93e acb5 77bd 0f9a 9d3d 7c87 f73d
000000b0: 24cd 34be 5657 94bc dbf7 023b 7c2c 11bc
000000c0: 274e 183d a812 f53d 686a 9c3d 5f92 253c
000000d0: c364 423e 75b1 8cbc 850b 17bc ebc1 b03c
000000e0: 259f 233b d952 a8bb 558c 7a3d 4918 b4bc
000000f0: 48dd 14bc 3015 ccbc ebd1 1b3c 1877 0dbd
00000100: ca0a 61bd 9262 33bd 156c c6bc 2fa5 e03c
00000110: a385 abbd 3f63 f03c ae68 2e3d 307d 4abd
00000120: d890 35bd baa5 263d cf9d d53b 4c6d 77bb
00000130: f751 eb3d 35f6 2f3d f810 82bd be3e a93c
00000140: e157 89bd 72ba 0b3c 34a3 9739 5a76 40bd
00000150: 865f 063d db4a eb3c aca9 e0bc c7d9 83bc
00000160: 2b7e d23c b6b5 c5bc 126c 963d e40b 873d
00000170: 0eb0 863d 5d96 a6bd d56e 8a3e 4ce6 54bc
00000180: 7dab 1e3e 9472 d4bb a5e7 76bc 6636 55bd
00000190: f67c 11bc 63cb 0abd 2661 bbbb bd46 a4bd
000001a0: 527d cbbb cf19 88bc 0857 15bd bf90 25bc
000001b0: 58fe 793b 0fe0 f93b 8d25 b03c 23c3 9b3c
000001c0: dd3d 0a3e 3476 573d 4ebc b3bb 8324 81bd
000001d0: d505 a1bc e10a b5bd 89fb 30bd a14f 4f3c
000001e0: 9ace ef3c 4704 983d 69ba 76bd ad74 613d
000001f0: eaeb a73e 2656 18be 6942 be3d b5b4 d43d
00000200: d618 c53d f62e 0d3e 6122 703e 4d3e 383e
00000210: 2fcd 953d c7bc 4b3e d377 763d 75e4 273c
00000220: 0538 0b3d 19b4 d1bc d7b2 a83c c491 65ba
00000230: d673 26bc 313f 043c 5743 88bd 0b5d 893d
00000240: 30c1 8a3c cbfb 5dba 2a21 2c3d ce35 43bc
00000250: 501a 2a3e 552d 1e3e 67c9 583c 286c 81b9
00000260: fb79 52bc de2e 733c eefa cb3b 5e5e 2d3b
00000270: ba15 74bc 0a70 56bd 1596 63bb 94fd b03b
00000280: 5ead a4bc 481a 933c d23e fdbc 8b41 bf3b
00000290: 5d21 c0bd 5c6f 5abd b759 03be 1e81 c5bd
000002a0: 59fe 363d 71fe 6ebd a83b 99bd a51e 063c
000002b0: 7ce2 0c3c 8552 5c3d 3464 833d 0732 ee3d
000002c0: 965b 103d a03f 443d 90d3 17bb 8982 e5bc
000002d0: d124 e93c d76c 16bc 5f9c 03bd 4d78 76bd
000002e0: 8bdc f7bb e2e5 073d e5aa 03be 0ff0 a8bd
000002f0: ff34 c23d 6c52 ea3b 8f8e 14bd 1dc0 4cbc
00000300: 6048 67bd c407 ddbd 4709 70bd 87e9 463c
00000310: 25e7 ebbd 2cdc a5bc 566c 5bbc 3e3c 643c
00000320: 535a 73bd 5bf6 97bd d006 d83d f5c3 8fbc
00000330: 1a32 9dbc 4a21 ad3d cc63 623c db81 3cbd
00000340: 7ffa 9b3c 7f27 c7bc dc9c eaba 01af 9f3c
00000350: 2121 e5bd eb29 85bd 0445 093d 25fa 3fbd
00000360: 5707 5dbb e747 23bd 5915 c03a e326 2abd
00000370: 6728 01be c1f5 b6bb 65e7 1cbd 2e8f bebd
00000380: 1dd2 b03c e9de 8b3d 52c1 753d 79ba 4f3d
00000390: 9809 843c b17a d6bd 9370 493d 5d4a e5bc
000003a0: c9b3 97bd 8d35 adbc c275 da3c 4dec c83c
000003b0: cef7 303d 369b 483c 31e4 04bd 7b80 a43d
000003c0: 1624 083c efda de3c cc12 a93d 08ba 32bc
000003d0: ddd5 09bd 8a11 fbbb 3ea8 1f3d 5bec cd3d
000003e0: 007d 4cbd 663a 70bb 162d c73a d4dc 623c
000003f0: d49f 4cbd c85e 8bbd 495f e3bd b94f 893c
0.014769639 -0.05125411 -0.038006302 -0.018352691 -0.03029201 -0.086782806 0.019215167 -0.001398155
0.025650779 -0.005822029 0.029849838 -0.0120651 0.038591236 -0.05115316 -0.01744812 0.122277126
0.06677693 -0.011534218 -0.02413795 0.02560797 -0.044412456 -0.0066089183 0.03119362 -0.047176283
0.062073093 0.051957574 -0.051538806 0.037815236 0.0238748 -0.0005589824 0.04831536 0.09040582
0.042641003 0.015941259 0.07935781 0.018377583 -0.0120629445 0.112386934 -0.04292 -0.060089845
0.33059335 -0.06047599 0.076954 0.120863885 -0.1765638 -0.018108051 0.001998416 -0.008860704
0.037183907 0.11966449 0.07637483 0.010105698 0.1898375 -0.017174462 -0.009219055 0.021576842
0.0024966684 -0.0051368293 0.061168987 -0.021984236 -0.009085961 -0.024912447 0.009510498 -0.034537405
-0.05494193 -0.043795176 -0.02422146 0.027422516 -0.083750986 0.0293442 0.0425803 -0.049435794
-0.044327587 0.040685393 0.0065190564 -0.0037754355 0.11490243 0.04295941 -0.06350893 0.0206598
-0.06706215 0.008528339 0.0002892256 -0.04698787 0.032805942 0.028722217 -0.027424656 -0.016095055
0.025694927 -0.024134498 0.073448315 0.06594065 0.065765485 -0.08134148 0.27037683 -0.01299436
0.15495105 -0.0064833853 -0.015069877 -0.05205383 -0.008879891 -0.03388537 -0.005718368 -0.08021305
-0.0062100077 -0.016613869 -0.036459953 -0.010105311 0.0038145985 0.007625587 0.02150228 0.019013947
0.13500161 0.05260296 -0.005485094 -0.06305792 -0.019656101 -0.088399656 -0.043208633 0.012653262
0.02927332 0.07422691 -0.06023637 0.05504291 0.32797176 -0.14876613 0.092900105 0.1038603
0.09623878 0.13787445 0.23450615 0.17992516 0.07314526 0.19896232 0.060172867 0.0102473395
0.03398897 -0.025598573 0.02059309 -0.00087573775 -0.010159453 0.008071707 -0.06653469 0.067072
0.016937822 -0.0008468001 0.042023815 -0.0119146835 0.166116 0.1544698 0.013231612 -0.0002468538
-0.012846465 0.014842717 0.0062249815 0.0026453952 -0.014897758 -0.052352943 -0.0034726907 0.0054013226
-0.0201022 0.017956868 -0.030913744 0.0058366708 -0.093813635 -0.053328857 -0.12827192 -0.09643768
0.04467616 -0.058348123 -0.07482082 0.008186017 0.00859892 0.053789634 0.064155966 0.11630636
0.035243593 0.04791224 -0.0023166873 -0.028016346 0.028459938 -0.009181223 -0.03213155 -0.06017332
-0.0075641326 0.033178218 -0.1285816 -0.082489125 0.094827645 0.0071509387 -0.036268767 -0.012496975
-0.056465507 -0.10792497 -0.058602598 0.012140638 -0.11518697 -0.020246588 -0.0133925285 0.0139303785
-0.05941231 -0.074200355 0.105481744 -0.017549494 -0.01918893 0.08453615 0.013817739 -0.046022277
0.019040344 -0.024310825 -0.0017899531 0.019492628 -0.111879595 -0.06502136 0.033513084 -0.046869416
-0.0033726299 -0.039863493 0.00146548 -0.04154099 -0.12613069 -0.0055834954 -0.038306613 -0.09304653
0.021584565 0.06829626 0.059998818 0.050714944 0.016117856 -0.1047262 0.049179625 -0.02798956
-0.07407338 -0.021143699 0.02666748 0.02452674 0.043205075 0.012244036 -0.032444183 0.08032318
0.008309385 0.027204005 0.08255538 -0.010908611 -0.03365122 -0.007662003 0.038978808 0.10054847
-0.049923897 -0.0036655902 0.0015195932 0.013846595 -0.04995711 -0.068051875 -0.111021586 0.016761648

down2.0.bias f4 [32]
00000000: 4738 c23d 6753 2a3e e8d4 6b3e 7d88 223e
00000010: 969f 323c a603 6a3c f028 87bd 208d 633e
00000020: 0435 363d 535a bc3c 361b 1f3e a5a8 563d
00000030: ac97 263d 3dff 133e 4f91 a63d 05e8 9c3d
00000040: 2511 b23c 400b 803e 7481 da3d 926f cf3d
00000050: b2a5 5a3e 0d4e 4b3d 8971 013e a56d 803e
00000060: 2bb1 9e3d ba8e 803e b899 093e 92d5 193d
00000070: 3066 5cbd 1923 613e 800c a93d 9a5f 3e3e
0.0948339 0.16633378 0.23030436 0.15872379 0.010902306 0.014283096 -0.06599605 0.22221804
0.044484153 0.022992289 0.15537724 0.052406926 0.04067199 0.14452834 0.08133184 0.07661442
0.02173669 0.25008583 0.106692225 0.10128702 0.2135227 0.049634982 0.12640966 0.25083652
0.07748636 0.25108892 0.13437545 0.037557192 -0.05380839 0.21986045 0.08254337 0.18591157

down2.2.weight f4 [64, 32, 3, 3]
00000000: 6642 b03c b02d 6039 24ce 06bd 362e c23c
00000010: 47de ad3c 98f4 373d 4735 133d 9037 1e3c
00000020: 1f62 8d3d 975c ea3c 9e23 b63d aeb0 ad3d
00000030: d111 973d 51d5 bf3d 9538 963d cbd6 07bc
00000040: 01e6 ee3c e102 c23c a0ad 95bd 4a40 eb3d
00000050: 2c01 3c3d ee1b 0c3c 5c9a 66bd 97bb ebbd
00000060: 5a33 6a3d e7a9 253e 2b4d c63b 9a69 823d
00000070: 0d1f ad3d 821d 953c 4374 17bd d468 7fbd
00000080: 215c 01be 942f f8bb 3a2b b83d d4b4 ab3c
00000090: 402a ae3c ce68 af3d fefd eb3c 542e dabd
000000a0: ad42 f53d dc0c e53c 91e1 72bd 4f4d 163d
000000b0: af57 c63d 7e61 59bc a80e 17bd 5d5e ecbc
000000c0: c71e 283d 3155 82bd 537a b3bd d3c3 a93b
000000d0: 6b76 bebd e38c b6bc aa86 e63c cb8f ab3c
000000e0: a5a1 983d b01a 893c fadb 80bd a321 143e
000000f0: d071 9abc 00e1 9cbd 04fd d5bd c4e5 ef3c
00000100: aa26 53bd a845 a3bc 0517 5dbd 5386 3abe
00000110: 7051 72be 1cf6 4a3d f04f 343d 028a 243d
00000120: 200f 923d 4e0b dabc 5e65 b13c 3f04 f63c
00000130: 7e89 09be 29c4 0abe 72e1 893d 72ce 183e
00000140: 64bf 32bd d387 e6bc 4027 44bd aa87 3abd
00000150: c22f 9c3b 34c3 acbc cb4e b33c 33d4 15bd
00000160: abe5 13be c81f 40bd 96f5 92bc 9002 dfbc
00000170: f146 c8bc 375c 01bd 1501 443c dfc8 53bd
00000180: 8639 813d 6186 94bd 083e 973d 9885 82bd
00000190: ba51 c2bc 0f1a 41bc db79 e2bc e326 7c3d
000001a0: 0cfb 103d e828 503c 188f 063e 13ec ae3d
000001b0: 90e2 91bd 46ee 203c afab b2bb f29d 73bd
000001c0: 8374 a6bd b603 19bd 640d 29bd ae47 c93c
000001d0: deb6 6b3d 8c26 333d 0bb2 153d 5a21 443d
000001e0: 2438 ef3d 9226 66bd df85 203c 03b7 25bd
000001f0: dc30 713d 8b89 81bd 0272 7b3d f73b 603d
00000200: 72f2 543d c34c 6b3b f4db 1cbe 8880 d4bd
00000210: 16b0 853d 8273 463d d76c dc3d 1b13 fa3c
00000220: cb29 003d 9fc0 5dbd 668b b73d 9c4b 633d
00000230: a6aa 9fbc 59fe 60bc 0821 bebd 4111 5dbd
00000240: 291b d7ba abf2 4d3d 5185 bf3b 7379 a9bd
00000250: 21b6 1abd 16ac 253e 1f00 c9bc deb1 f9bc
00000260: 0b3b c03d c988 37bd 911e 13bc 55ba bcbc
00000270: 1123 6cbd 0b25 2a3e 9f20 7bbd 56b0 9bbc
00000280: 6b87 203e 6c44 473d a0b8 a2bd cb32 4bbd
00000290: e15b 5bbd 6ef9 043c 6144 a83c 97a3 353d
000002a0: 9e81 ad3a f275 4fbd 217f 1cbd 56cd 57bd
000002b0: 5584 fc3c 7807 5dbd bc62 d33d 6e16 973d
000002c0: 7d33 343d c265 873c da8b 723d 3ebf 40bc
000002d0: 31ed b3bd d2b1 c8bc 9dad 15bc 633f 143d
000002e0: c2bd e13d 7a36 373d 7fa1 13bb ce99 e23c
000002f0: 1e61 75bc 3627 0abd bbe2 333d 00ed 0e3b
00000300: ce76 06bc ad40 1bbe 7ea2 e1bd 0707 1d3d
00000310: 61fb 1d3e cf40 0e3e 2934 e33c 3504 82bd
00000320: 7295 f939 8ca4 fdbc fe7c dd3d f6b1 a13d
00000330: c30d 0b3c d9bd 973d 63f8 33bc 9007 07be
00000340: 16c0 5bbd 38b6 0ebd 88a6 4a3d 7005 cb3e
00000350: df94 b23e 58c0 cbbc 3faa ad3c b287 913d
00000360: 986b a33b a47c 01bc 9f39 aa3b c53a 003e
00000370: 4afd 5d3e ca2a 443e a932 793d f33c 6e3d
00000380: 6199 533d 5e44 f3b9 3489 ecbd f714 1ebd
00000390: 297f ff3d dcf6 203e 7123 533e b9b6 a33d
000003a0: 4ee2 933d 8f72 85bb 7181 b43d 2268 d23d
000003b0: 0e3b 923d 555c d8bd c0d7 90bd bf72 0ebe
000003c0: 79cb 0a3c 1c04 9c3d 459e 0e3d 582c 22bd
000003d0: fd3b 9bbd abde a0bd 22dd f3bc 66e1 c23d
000003e0: d56c 573d 689a f8bc 51eb adbd 7ea0 16bd
000003f0: fc01 f6bc 8946 54ba f595 4b3d 709b 40bc
0.021516036 0.00021379325 -0.032911435 0.023703676 0.021224154 0.044910997 0.03593948 0.009656802
0.06903481 0.028608603 0.08893512 0.084809646 0.07376445 0.09366859 0.07335011 -0.008290957
0.029162409 0.023683013 -0.07308507 0.114868715 0.045899555 0.008551581 -0.056299552 -0.11510389
0.05717788 0.16178094 0.0060516796 0.06367798 0.08453188 0.018202547 -0.03697611 -0.06235583
-0.126328 -0.007574031 0.0899262 0.020960249 0.02126038 0.08564912 0.028807636 -0.10653368
0.11975608 0.027960233 -0.05929715 0.03669482 0.09684693 -0.013267873 -0.03687921 -0.02885359
0.041044977 -0.06363905 -0.08763566 0.005180815 -0.0929993 -0.022283977 0.028140385 0.02094259
0.07452706 0.016736358 -0.06291957 0.14465956 -0.018853098 -0.07660103 -0.104486495 0.029284365
-0.051550545 -0.019930676 -0.05397703 -0.18215303 -0.23663878 0.049551114 0.044021547 0.040170677
0.07131791 -0.026616719 0.021654781 0.030031322 -0.13431355 -0.13551392 0.067324534 0.14922503
-0.043639556 -0.028140938 -0.047888994 -0.045539536 0.0047664354 -0.021089174 0.021888157 -0.036579322
-0.1444308 -0.04690531 -0.01793937 -0.027222902 -0.02444789 -0.031582084 0.011963149 -0.051705237
0.063098 -0.07252193 0.073848784 -0.06373137 -0.02372061 -0.011785998 -0.027645996 0.061560523
0.035395667 0.012705065 0.13140523 0.08541121 -0.071232915 0.009822434 -0.005452595 -0.0594768
-0.081276916 -0.037357055 -0.041272536 0.024570312 0.057547443 0.043737933 0.036546748 0.04788337
0.1168063 -0.056189127 0.009797542 -0.040457737 0.058884487 -0.06325062 0.061388023 0.054744687
0.051989026 0.0035903908 -0.1531828 -0.10376078 0.06527726 0.04845 0.10762947 0.030526688
0.031289857 -0.054138776 0.08962135 0.05549203 -0.019490551 -0.013732516 -0.09283644 -0.053971533
-0.0016411293 0.050280254 0.00584475 -0.08275118 -0.037771348 0.16178927 -0.02453619 -0.030480321
0.093862616 -0.044808183 -0.008979456 -0.023038069 -0.05765063 0.16615693 -0.061310407 -0.019004982
0.15676658 0.048649237 -0.07945371 -0.049608987 -0.05355442 0.008116109 0.020540418 0.044345465
0.0013237481 -0.05064959 -0.038207177 -0.052686058 0.03082482 -0.0539622 0.103215665 0.07377325
0.043994416 0.016528014 0.059215404 -0.011764346 -0.08785475 -0.024498854 -0.009135631 0.036193263
0.110225216 0.044729687 -0.002252668 0.02766123 -0.014976768 -0.0337288 0.0439174 0.0021808743
-0.008207036 -0.1516139 -0.11017321 0.03833678 0.15427925 0.1389191 0.027734833 -0.06348459
0.00047604326 -0.030962251 0.10814856 0.078952715 0.008487168 0.074092574 -0.010984513 -0.13186479
-0.053649984 -0.034841746 0.049475223 0.39652586 0.34879205 -0.02487199 0.021199344 0.0710596
0.0049871914 -0.007903252 0.0051948573 0.12522419 0.21678653 0.19156948 0.06083933 0.058163594
0.051659945 -0.0004639951 -0.11549607 -0.038594212 0.12475426 0.1571917 0.20618989 0.07993836
0.072208986 -0.0040724943 0.088137515 0.10273768 0.0714017 -0.10564486 -0.07072401 -0.1391096
0.008471363 0.07617971 0.034818906 -0.03959307 -0.07579801 -0.078549705 -0.02976853 0.095156476
0.052594025 -0.030347064 -0.08492149 -0.03677415 -0.030030243 -0.0008097669 0.049703557 -0.011755809

down2.2.bias f4 [64]
00000000: cbeb ae3d 811a 4fbd aeb4 343d 1f17 b93d
00000010: 5233 8a3d 02dd 63bc 2ee3 8dbd 73aa 25bd
00000020: 45d1 cc3d 1d66 563e 383c 0c3e 640a a23d
00000030: 96ba 2f3c 0b10 583d db8a 95bd d9ec 483d
00000040: 4f63 f23d d692 7abd d18a 19bd e193 423e
00000050: 2078 6cbd 6d21 b0bd f0e6 433c 261d 153e
00000060: a4e1 8f3d 7387 3b3d 440e a63d 988a 6bbc
00000070: 203d c43d 65a5 873d 7bcb a13d 24af ad3b
00000080: 1e53 9f3e c9fb b13b 84ed 493d 1544 9c3d
00000090: 877b 0f3e 5279 543d bfe5 a3bd d5ac 903d
000000a0: a9c0 833d c2fa 453d eb06 883d 3f4e 283d
000000b0: 1ae2 513c b9e1 d13b ed23 a63d 0fc3 6c3d
000000c0: a8a2 653d a014 253e 5390 edbc 2e69 37bd
000000d0: 5a45 663d e73c 483c ef11 d63d d345 1b3e
000000e0: df8a 59bd 47d9 9b3b 93ff d93d c89d f8bc
000000f0: faed e3bc 8b5f 233d 9212 a63d 7ebc 583d
0.08541068 -0.050562385 0.044117622 0.09037613 0.0674807 -0.013907673 -0.06928097 -0.040445756
0.100008525 0.2093739 0.13694847 0.07912138 0.010725638 0.052749675 -0.07301875 0.049054
0.11835348 -0.06117519 -0.0374859 0.19001724 -0.057731748 -0.086001255 0.011956915 0.145619
0.070254594 0.04578347 0.0810819 -0.014376305 0.09581971 0.066233434 0.07900139 0.0053004194
0.311181 0.0054316265 0.04929878 0.07630173 0.14011966 0.051873513 -0.08002805 0.07064215
0.064332314 0.048334844 0.066419445 0.041090246 0.0128102545 0.006405082 0.08112321 0.05780321
0.056063324 0.16121149 -0.028999483 -0.04477804 0.056218483 0.0122215515 0.10452639 0.15163355
-0.053110953 0.004756126 0.1064445 -0.030348673 -0.027823437 0.03988604 0.08109011 0.052914135

up2.0.weight f4 [64, 32, 4, 4]
00000000: ec1b d63b 31cf 92bd d065 80bc 7c93 3c3d
00000010: 44dc 803d 73a6 043e 6bf3 d43c 9bcc 103d
00000020: ff8e 54bd 1f3a 373e e87d f7bc 5dea 32bd
00000030: 1171 d1bc d71e a33d 1f47 70bd e2c0 30bd
00000040: 8c64 4cbd 2110 5fbb 73ab 37bd add6 0bbd
00000050: 64d4 123d 09ba 97bc b392 c1bd 4e61 253d
00000060: d46b 2dbd b6cf 813e 0698 d9bb a83d 0fbb
00000070: 4fad ddbb b6ff 9f3c bf16 bcbd b99f 26bc
00000080: e86f 443d 8c41 093d 9e36 ea3b cd11 8e3c
00000090: be71 a43b ff1d 233d 2716 a63d f6b5 6fbd
000000a0: 44bc 3a3d 3b83 833c 77f9 093e 7b5a 783b
000000b0: 9de6 913d 650f 6cbb 5753 053d 6f62 3f3b
000000c0: dd99 ebbb 8520 073d e7e4 2dbd 0bc4 f43c
000000d0: 2603 3dbc 3569 593e 9a84 b03e 0803 d43d
000000e0: 3250 24bd a014 1bbd 3f76 1eba b7f1 973c
000000f0: 37df 7d3c 1e7d e23d e1f3 bb3d f185 fe3c
00000100: 6a65 173c 86ec 53bd 795e bcbc be04 5bbc
00000110: 92e8 a93d 6539 1e3e 0e36 303e fa04 a33d
00000120: cc1c c83c 8781 393d f224 5b3e c161 443d
00000130: ed77 c0bd 5b1b 32bc 51ee 9e3c 30fc 383b
00000140: 6709 793c 4479 fd3c a7c1 e2bd e499 dbbc
00000150: 7863 de3d 689e af3c 776d aebc d91d 98bc
00000160: 2232 64bd 1d95 8e3e 5b22 e13c 821e 0f3e
00000170: 3b3c f7bd fb54 56bc 690d fbbb 1d8c 683d
00000180: 5edb 87bc 0ce0 693d 27e4 a9bd ff85 58bc
00000190: 5c0b 0f3d d426 943e 5c39 303e 6750 ee3c
000001a0: 99f0 24bd 7243 0f3d f63e a13d ed4e d7bc
000001b0: 1700 55bb 4ef3 103d b9e1 573d 024e 213d
000001c0: 261b 843c c274 eebd 17af 8fbc 5d2a 53bd
000001d0: 4975 bcbc cfe7 073d 56e8 13bb f0cb 35bd
000001e0: da39 b13c ddaa 66bd 1920 4abd 1545 9bbd
000001f0: 800e 0bbd 9d78 113d ccfe edbc 0c49 ae3c
00000200: cc14 f93c 593a 9f3d 5c9e d13d 5188 50bb
00000210: a0bb b8bc b657 9c3d 6dab 063d c439 1d3c
00000220: 3064 903d cfa5 043e ab80 e63d 58b6 f73c
00000230: 4c56 a73c 4484 833d 8e75 143d 6740 1bbc
00000240: 38d5 9fbc fafc 9e3d 2c48 18bd f613 8abd
00000250: eda9 ec3c d148 2f3e 4219 8a3c dfe7 e93d
00000260: 3ab2 26bc 3ba4 733c 5b8f 34bc 9060 7f3d
00000270: 0b87 283d f435 b83d f997 31bc 9415 d4bd
00000280: 71e2 c5be adbd 08bc 8aa9 2cbe a259 293d
00000290: b328 08bd 69c3 133d bf98 08bc cc1d 083d
000002a0: 653f 3fbe fb6c da3d 9d98 433d 5250 283d
000002b0: b4c1 05bb c63d c0bc e1a4 e9bc ebdf 86bd
000002c0: f21a ebbc 54b9 82bd 522d 4abd f31a debc
000002d0: a269 08bd 6ee2 033d ea60 3ebd a38f 983c
000002e0: d096 c6bc d135 ccbd 8cbc 913d a3ee 003d
000002f0: d09b 81bb 518a c83a f114 873c 6030 a03b
00000300: 60ea 03bd 4f64 493a c69a 8fbd 0779 47bc
00000310: f210 e5bc 7110 56be 54ae 693d 7ad4 c6bc
00000320: 42b6 1abe 4d30 c73d db8c 68be f577 8bbd
00000330: 4728 463d 754d 6b3d bfcf 9fbd 2faa 3f3c
00000340: 16ca 4c3d c142 fd38 3791 c6bc 8102 e6bb
00000350: 7ca6 85bd 1e93 113e 7ce2 3f3d bd91 0f3d
00000360: 4458 7fbb 7a53 b43c 669a ce3c 56a7 7c3d
00000370: 0c10 a83d 7a62 133d 54f4 8d3d 2750 403d
00000380: d600 83bb a7be ebbc d064 fcbb 449a 4f3d
00000390: df04 ecbd 99c7 50bd 8409 e9bd 5415 78bc
000003a0: 236e 40bd 6752 6b3d 5ea0 b2bd 4fe7 c53c
000003b0: aca1 28bd ec9e af3d 5461 aa3c 07d4 0abe
000003c0: 1e1f fa3d 4103 e339 f292 3c3c 5fba 6a3c
000003d0: 8eaa a93d 0835 9cbc 1119 e13d f3f3 a93b
000003e0: 04a3 65bc c66e ffbd cc1e b8bd cb90 4e3c
000003f0: 8456 c13c 467a c9b9 0fa5 d23c 73f2 943c
0.0065340903 -0.07168425 -0.015673548 0.04603909 0.06292012 0.1295412 0.025994977 0.035351377
-0.051894184 0.17893265 -0.030211404 -0.043680537 -0.02556661 0.079648666 -0.058661576 -0.043152697
-0.049900576 -0.0034036713 -0.04484124 -0.034140278 0.035847083 -0.018521326 -0.09451809 0.040376
-0.04233916 0.25353783 -0.006640437 -0.0021856818 -0.0067650448 0.019531112 -0.09184026 -0.010169917
0.047958285 0.033509776 0.007147624 0.017342472 0.005018442 0.03982353 0.08109694 -0.05852314
0.0455897 0.016053787 0.1347407 0.0037895727 0.07124064 -0.0036019918 0.032550182 0.0029202958
-0.007189973 0.032989997 -0.042454626 0.029878637 -0.011536395 0.2123154 0.34476167 0.10352141
-0.040115543 -0.037861466 -0.0006044842 0.018547876 0.015495113 0.110590205 0.091773756 0.031069728
0.009240488 -0.05173924 -0.022994267 -0.01336783 0.082963124 0.15451582 0.1720812 0.079599336
0.024427794 0.045289543 0.21400812 0.047944788 -0.09397874 -0.01087078 0.019400747 0.0028226487
0.015199996 0.030941613 -0.110720925 -0.02680678 0.10858816 0.021437839 -0.021292431 -0.01856892
-0.055711873 0.2784814 0.027482202 0.13976482 -0.12072035 -0.013081784 -0.0076615107 0.056774247
-0.016584095 0.057098433 -0.0829547 -0.013215541 0.034922943 0.28935874 0.17209381 0.029091073
-0.040268514 0.03497643 0.07873337 -0.026282752 -0.0032501274 0.035388283 0.0527055 0.039381035
0.016126227 -0.116433635 -0.017539544 -0.051554073 -0.023005145 0.033180054 -0.0022568903 -0.044383943
0.021634031 -0.05631529 -0.049347017 -0.07581536 -0.033949375 0.035515416 -0.02905216 0.021275066
0.030405425 0.07774801 0.10235283 -0.0031819532 -0.022550404 0.07633917 0.032878328 0.009596292
0.07050359 0.12953876 0.1125501 0.030238315 0.020426892 0.06421712 0.03624492 -0.009475804
-0.01951085 0.07763095 -0.037178203 -0.067420885 0.02888962 0.17117621 0.016857747 0.11421179
-0.010174328 0.014870699 -0.011020507 0.06234795 0.041144412 0.08994666 -0.010839456 -0.10355678
-0.38649324 -0.0083460035 -0.16861549 0.041345246 -0.03324194 0.03607503 -0.008337199 0.03323154
-0.18676527 0.106653176 0.047752965 0.041092224 -0.0020409646 -0.023466956 -0.028521003 -0.06585678
-0.028699372 -0.06383005 -0.049359627 -0.02711246 -0.033303864 0.032198362 -0.046479143 0.018623179
-0.024241835 -0.09971202 0.071160406 0.03147758 -0.003955342 0.001530001 0.016489478 0.0048885792
-0.03220594 0.00076824886 -0.070119426 -0.012174851 -0.027962182 -0.2090471 0.057051018 -0.024271239
-0.15108588 0.097260095 -0.22709982 -0.06809989 0.048378255 0.057446916 -0.07803296 0.01169829
0.04999741 0.00012076414 -0.024239166 -0.0070193415 -0.06525895 0.14216277 0.04684685 0.035051096
-0.0038962523 0.022012461 0.025220107 0.06168302 0.08206186 0.035982586 0.069313675 0.04695144
-0.0039979024 -0.028777434 -0.0077024475 0.05068423 -0.115243666 -0.0509716 -0.11378768 -0.015141804
-0.046980035 0.057451632 -0.08721994 0.024158148 -0.041169807 0.08575234 0.020798363 -0.13557445
0.122129664 0.00043299238 0.011509644 0.014326661 0.08284484 -0.019068256 0.10991109 0.0051865517
-0.014015917 -0.124723 -0.08990249 0.0126077635 0.023600824 -0.00038428808 0.025713472 0.018182015

up2.0.bias f4 [32]
00000000: 8133 d1bc cba9 ab3d 87b4 293e 46f6 3abd
00000010: 8a7e 863c 8869 ef3d 9c1e 02bc 67d9 323e
00000020: 4f99 423e a323 a43d fd49 703e 5bc4 d03d
00000030: e290 6b3e 5295 93bd 1009 083c d08e ae3c
00000040: 0519 c23d 8e56 063e 24ee 48be b83b 4f3d
00000050: 162d ed3d 8390 d83d 1da8 54bc 9ce4 c53d
00000060: bb03 e83d 86de c83d 5672 22bd 986d aa3e
00000070: c9f6 ef3d d853 bf3c fed2 ab3d 5151 a23b
-0.025537254 0.08381995 0.16572772 -0.04564502 0.01641776 0.1169005 -0.007941868 0.17465745
0.19003795 0.0801461 0.23465724 0.10193702 0.23004487 -0.07206215 0.008302942 0.021308333
0.09477428 0.13118955 -0.19622093 0.05059406 0.11580865 0.105744384 -0.012979534 0.096627444
0.113288365 0.09808068 -0.03965982 0.33286738 0.117169924 0.02335541 0.08389853 0.0049535413

up2.2.weight f4 [32, 32, 3, 3]
00000000: dea0 a7bb b4a5 9cbd f4a3 f0bc 8706 b5bd
00000010: 78cd 23be e58b 1a3d 41f6 d83b 79a9 1e3e
00000020: 0276 d13d df2e 2d3c 9384 2c3c 067b 93bd
00000030: 65dc 0dbc a262 403d 7688 f2bd e953 55bd
00000040: af09 873c a135 18bd 1b38 d7bc e67f f83c
00000050: a5a0 a23b 5da6 d1bd f5c2 f53c 00f3 d83d
00000060: d3fc 01ba 39ff 9ebd 6dc0 ee3c 3a5a 173d
00000070: 4145 06be bec7 e2bd c003 3f3d a17f 4fbe
00000080: 5b44 ffbd fbf4 d13c acf8 0a3e 05c9 cfbc
00000090: 3a8d 5d3d a108 d23d 85f8 783d 6141 57bd
000000a0: 083f 003e 0f63 493e eb05 c7bd 745b 52bd
000000b0: 3fe9 c83d 528c fa3c aff9 c93d 6429 4b3d
000000c0: b944 c93d a8ae 203e a966 163e f466 823c
000000d0: 99a8 b13d 2ce5 953d 05ec 073b e913 863d
000000e0: d103 60bb ac24 883d 7f1e 993d b531 7fbd
000000f0: 92ab c9bc 2016 e7bd d1f8 0abd 9074 29bd
00000100: 2744 59bb 58df 37bd ffa0 9e3d fd0b 1c3e
00000110: a4dd cf3d 37d8 fb3d 49ae 4a3e 3c14 c13d
00000120: 5b42 28bd f4b0 21be b7da f8bc ba7d f9bd
00000130: 9d30 fc3b 0ec8 3dbd b25b 183d 3f09 b73d
00000140: a2b4 31bd ea35 9bbd 9b51 e43d f6f6 e03c
00000150: 4f45 d73d eb82 6bbe 0e25 463c 75ad 7f3d
00000160: 7f88 b73c 9daa 273d 6e25 b13d d143 e43d
00000170: 6fee 8b3d c857 d23d dc68 e03d 4aae 27bd
00000180: c82d e63c 2ede 47bd 6dce 02be ea3a 85bc
00000190: b9b8 e03b 6f37 2bbd 42a9 52bd 97aa 4b3e
000001a0: e0e1 07be 33fa edbc 7fb7 0bbe 1181 42bd
000001b0: d0c1 edbc f58b 3cbd f0af ab3c 59aa c4bc
000001c0: bf5b 1f3f 567f 543e d657 553c 74e3 243e
000001d0: 3ee6 943a f14f 803c 1d70 ca3c f8e7 3f3d
000001e0: b65e 95bc 4857 0abd 7c6a 933c b093 483d
000001f0: cce2 4cbd 839e d5bd c10c 97bc c622 a4bd
00000200: 5aef a8bd b821 bebc 2d3c ebbd 899a cfbd
00000210: 0c41 3bbc 67cc a8bd ba03 b2bd 371d 65bc
00000220: b5f8 593c df00 7e3c afdf d23a eb32 2cbe
00000230: dd64 2ebc 09cf 32bd e0f7 d6b9 28ab 89bc
00000240: a225 6abd 93c8 d2bd 5b3c 04bb 823a 96bd
00000250: 0ccd 3bbe 5f17 28bc 8ada b3bd f514 163c
00000260: c97f 0ebd c769 9ebc c974 e1bc 9db3 9cbd
00000270: c5a6 dc3b 8be6 e33c cb66 c6bd 9704 093b
00000280: 7649 a13c 502b 83bd c55a ff3c 1c01 083d
00000290: aef6 7abb b494 52bc d18d 17bd 8977 aebd
000002a0: a2d5 7abc ae97 c6bd 2a89 21be d3d8 0ebd
000002b0: 0977 8dbd c143 ac3c e750 d23c a4f4 ab3d
000002c0: 5222 183e 20cc 4a3c 52e2 353e c678 cd3d
000002d0: 7977 f6ba c66f 37bd 1d5b 85bc c313 b23c
000002e0: 474d b4bd d747 94bd 735c 1b3c 3fbc 2b3d
000002f0: 3b2d ef3c bc64 b2bc e219 343d 6afd 9b3b
00000300: 844b b33d 1ba0 d63d cca7 96bd b368 bc3b
00000310: b3e8 993c a188 6e3d 2f11 d6bc 52ea 6d3c
00000320: dced 273d 7c8c 2fbc eba2 bfbd f1d9 6abc
00000330: e966 543b 6449 56bd be58 8b3c 4c00 513c
00000340: 374f 2a3d 93ea d2bc 4ec0 11bc 6862 a93d
00000350: caad 183d 9817 073c 58a5 b4bb 6843 9e3a
00000360: c630 01bc b465 2a3e 826c b43d 28c6 0d3e
00000370: db88 7abe 88d1 cf3d f58b e83d 1e0b 0d3d
00000380: 7104 b23d 2346 9abc 0369 a4bc 7bbe debd
00000390: 922f 33be d08c ef3c 263a e33d 7a10 0a3d
000003a0: c2be 6dbc 9885 b73c 7aca 85bd 5ef5 5bbd
000003b0: 3bac 40bd 0e3f 70bd 85b7 3dbe 5f80 d9bc
000003c0: 90f1 79bd 4db6 65bd 0f20 9a3c b29f 983d
000003d0: f216 9c3d 62aa ff3c 34df 1d3e 1031 5d3e
000003e0: a0cb 7a3d 17c7 003e 0761 333e bf5c 823d
000003f0: 7142 353d d045 073d 3e26 8cbc 4e1a a33d
-0.0051156124 -0.07648793 -0.029375054 -0.088391356 -0.15996349 0.03773107 0.0066211526 0.15494336
0.10227586 0.010570257 0.010529655 -0.07201199 -0.008658503 0.046969064 -0.11842434 -0.052081976
0.01648411 -0.03716052 -0.02627187 0.030334424 0.004962998 -0.102368094 0.03000019 0.105932236
-0.0004958633 -0.077635236 0.02914449 0.03695128 -0.13112356 -0.11073254 0.046634436 -0.2026353
-0.1246421 0.025629511 0.13571423 -0.025364408 0.054089762 0.10255552 0.06078388 -0.052552585
0.12524045 0.19666694 -0.09717926 -0.051356748 0.09810113 0.030584488 0.098620765 0.04960002
0.09827561 0.15691626 0.14687599 0.015918233 0.086747356 0.07319102 0.0020740044 0.06546766
-0.0034181962 0.066476196 0.0747652 -0.062303264 -0.024617944 -0.11283517 -0.033928696 -0.04137093
-0.0033152194 -0.04489073 0.07745551 0.15238948 0.101496965 0.12297099 0.19793047 0.094276875
-0.041078907 -0.15790159 -0.030377729 -0.121821836 0.007696225 -0.046333365 0.037196822 0.089373104
-0.043385155 -0.07578643 0.111483775 0.02746151 0.105112664 -0.2299916 0.012093795 0.06242128
0.022403954 0.040934194 0.08649717 0.111457475 0.06832587 0.10270649 0.109575 -0.0409377
0.028098002 -0.04879587 -0.12774058 -0.016263444 0.006857958 -0.041800912 -0.051430948 0.19889294
-0.13269758 -0.029049968 -0.13644217 -0.04748637 -0.029023081 -0.04603191 0.020957917 -0.02400701
0.6224937 0.207517 0.01302143 0.16102391 0.0011360121 0.015663119 0.024711663 0.046852082
-0.018233638 -0.033774644 0.017995112 0.04896897 -0.050020978 -0.10430624 -0.018438699 -0.08014445
-0.08248778 -0.023209438 -0.11486087 -0.10136897 -0.011429083 -0.08242112 -0.08692117 -0.013984016
0.013303925 0.015503137 0.0016088391 -0.16816299 -0.010644165 -0.043654475 -0.00041001942 -0.016805246
-0.057164796 -0.10292163 -0.0020177576 -0.07335378 -0.18339938 -0.010259478 -0.087819174 0.00916027
-0.034789834 -0.019337548 -0.027521508 -0.07651446 0.0067337477 0.027819892 -0.09687575 0.0020907277
0.01968835 -0.064047456 0.031171212 0.033204183 -0.0038294005 -0.012852836 -0.03700048 -0.08518893
-0.015309723 -0.09696899 -0.1577498 -0.03487475 -0.0690747 0.021028401 0.025673343 0.08396271
0.14856842 0.012377769 0.17762116 0.10032801 -0.0018803916 -0.04478433 -0.016278798 0.021737939
-0.08803802 -0.07240265 0.009482491 0.041927572 0.029196372 -0.02177655 0.043969996 0.004760434
0.08754638 0.104797564 -0.073562235 0.005749786 0.018787717 0.05823577 -0.02613124 0.014521198
0.040998325 -0.010714646 -0.09357246 -0.014334188 0.0032409972 -0.052316085 0.017010089 0.012756418
0.04157945 -0.02574662 -0.008895947 0.08270723 0.037275113 0.008245371 -0.0055128746 0.0012074532
-0.007885164 0.16640359 0.08809759 0.13845122 -0.24466269 0.10147387 0.1135482 0.03443443
0.086922534 -0.018832272 -0.020069605 -0.10876175 -0.17498615 0.02924195 0.11095075 0.03370712
-0.014510812 0.02240257 -0.0653276 -0.053700797 -0.04703925 -0.058653884 -0.18527038 -0.02655047
-0.061021388 -0.05608206 0.018814115 0.074523345 0.07621564 0.031209175 0.15417176 0.21600747
0.06122935 0.12575947 0.17517482 0.06365346 0.044252817 0.033025563 -0.017108079 0.079640016

up2.2.bias f4 [32]
00000000: 829d 613e cfdc c7bd 8c94 a9bd b0be 8fbd
00000010: 4d62 b3bd eb03 a63b 1657 5ebd 2c81 b93c
00000020: 1f02 233e 9112 ccbb 15bb fe3d 837e 993d
00000030: 055d 9c3e 949f a5be 73d3 a53d 1d2b 3d3e
00000040: d32a 8a3e 6289 9b3e ebc0 413d 9eea 25be
00000050: 6432 c0bc 0c22 783d 7f33 f03e c41c 8b3d
00000060: 4151 df3e 1da6 ba3e 8be8 bebd 1a0c d33d
00000070: 5162 88bb 1c5c 3d3e 5c12 c83e 8616 9f3d
0.2203274 -0.09758913 -0.08280286 -0.07018793 -0.08758984 0.005066385 -0.05428227 0.022644602
0.15918778 -0.006227799 0.12438027 0.07494833 0.30539718 -0.3234831 0.08096971 0.18473478
0.26985797 0.30378252 0.04730312 -0.1620278 -0.023461528 0.060579345 0.46914288 0.06792596
0.4361668 0.3645486 -0.09321698 0.103050426 -0.004162111 0.18492168 0.39076507 0.07767968

up1.0.weight f4 [32, 16, 4, 4]
00000000: 9a4c 41bd 6078 ecbc b07a a43c 4aa9 32be
00000010: 10c9 863c b56d 21be 8d5b 9d3c 1f61 04be
00000020: 0e8d 983d d8d3 87be 0167 38bd 6bfb a1bd
00000030: a33e bb3c 188b 09be 6ab4 0fbc 6df2 29be
00000040: 464f de3c dce3 d03d ae3c 2d3b bf1e 223d
00000050: d2f1 f5bd 5236 623e fd3e 14be 974c 9b3d
00000060: 08fa 4b3d 22a5 b0bd 5e9c 023d 5c09 723e
00000070: 3dc1 b5bd c006 723d e374 22be 1429 9e3c
00000080: c569 5cbd ace7 83bd 4d99 efbd a649 99bc
00000090: 9fe0 84bd 4d79 97ba dd36 9cbd e2ea 033c
000000a0: 8bbe f0bd 8fc6 8ebd 900a 963e e29d d8bd
000000b0: c3cf 02bc b195 31ba e661 e7bd 07ae 54ba
000000c0: 59d6 4dbd 06c0 dc3c af85 24bb f86c 593b
000000d0: 5e45 bd3c 1507 29bd 77bb 903e 7766 fa3c
000000e0: 2574 0fbd 04cf b9bc 1df7 b8bc 71d2 08bd
000000f0: 5062 4f3d 36ea b739 c638 933d 1bb5 9b3c
00000100: 1fa8 843c 567b 4e3b d34d c03d 6d71 c5bc
00000110: 6363 febc cfb3 80bd af20 77bc 354b f0bc
00000120: 420f 92bd 2678 50bd d7dc 493d ccfe 17bd
00000130: 372c 473c cb58 5cbc f6e2 96bc 712e 423d
00000140: 722f 3e3c 3081 7abb 07ec 51bd ea54 82bd
00000150: 23d7 debd 3496 fe3d 0b00 c4bc 8cfd 923d
00000160: 062f f6bc 03cb 3cbc db91 f93c b2d3 d7bc
00000170: e4e2 98be 6a54 933d 6f17 613e c1c0 263d
00000180: fe30 06bc aa97 9ebd 337f 37bd 4cb8 a1bb
00000190: 12f9 36bd bfc4 773d 76eb 60ba 95e3 0ebd
000001a0: 6350 3bbd 3fbd 833e f093 6abe 7339 dcbb
000001b0: 0b26 4abc 73db 1abc 1cbe 84bd 49c4 a2bd
000001c0: 26db dcbd b2a3 de3d 08e3 dd3d 89a5 953e
000001d0: 741a 8d3c b0d2 fcbc 7232 c93d 2089 58bd
000001e0: daa4 c8bd 744f e8be f139 4e3f 7a22 6ebe
000001f0: 8e8f 4dbd 55dd 84bd a75f a5bd d74c 90bd
00000200: f970 013c 9ad5 993d 8c00 c8bd aa5d 9ebe
00000210: a302 d7bc 490f 2cbd 73fb 0e3b ba10 4b3d
00000220: d2bc 1dbe 2db0 6cbe 41cd 09bf bcdd 16bd
00000230: 83e2 903c aa59 923d ca5d 6cbd 57c2 26bd
00000240: 9cb8 29bb 2a69 033c fb4e a33c f6d2 8dbd
00000250: 51e3 b9bd e1c7 ddbd 7c52 a5be 636c d13d
00000260: 24c3 c33d 425f 9abb fc81 6fbe 02b5 84bd
00000270: b2d7 9fbd 3961 d93b da9d 9c3d 4417 693d
00000280: bdb4 8a3b 06e3 793d 79d6 323d d147 a0bd
00000290: 766f ae3d 8ef0 03bd ee4a d1bd 7a33 83bd
000002a0: 2a2d 67bd 4758 cd3a 3766 4b3c 080d 50bd
000002b0: b900 dabd 103f 133d e291 18be 2530 e23b
000002c0: 7ed6 4bbd 981f 08bb a0d3 7b3b 0f02 5fbd
000002d0: 8bf9 78bd 8a89 a13b 4cce 23bc 90f1 a6bd
000002e0: c50b ebbb 34fd 36bd cde8 923a 815c c8bc
000002f0: 0c31 773b a712 6bbd 8afe c8bb 91a2 a8bd
00000300: 1b1b 87bc 8036 ec3d f861 0dbd 7727 863d
00000310: 0511 4c3d 3c3f 68bd d018 b2bd d429 8cbd
00000320: c657 173e 9b81 053e d50f 943e 1777 08bd
00000330: 5c8b c63d 415f 67bd 5790 303e ca63 f839
00000340: 83d2 213d b6d0 873c c4a0 47bc 5bf9 363d
00000350: e600 ab39 b11a ecbb 48a9 9d3c e0eb c5bd
00000360: 703c 6a3d a8fd 163e 19bd 993e 115f 1e3d
00000370: 734f 2c3d d052 f7bc c64c 01bd 63e2 93bd
00000380: 7473 66bd e538 743d 67bc 09be 02b6 94bd
00000390: 4546 473e 03a8 c83d 564c 533e 071a b33c
000003a0: 9ac0 efbd 3b21 bf3e a0c6 84be fcb1 a03d
000003b0: c3e4 96bd f254 82bd ae02 293c 3fc8 b1bc
000003c0: 627d 933d 80a5 dbbd 72df 0cbd ea01 2fbd
000003d0: d42f 12be e99f 143c 2e8d 65be 87e8 af3c
000003e0: 8f06 063b 256a b73e e2c0 94bc def8 193e
000003f0: b6af 6fbd 9812 4abc b685 b1bc 70d4 ac3d
-0.047192194 -0.028865993 0.020078033 -0.17447391 0.016453296 -0.15764506 0.019208694 -0.12927674
0.07448779 -0.2652881 -0.045020107 -0.07909282 0.022857016 -0.13431966 -0.008771041 -0.16596384
0.02713741 0.10199711 0.0026433873 0.039580103 -0.12009014 0.22091034 -0.14477153 0.07582968
0.049798995 -0.086252466 0.031887405 0.23636383 -0.08874748 0.05908847 -0.15864901 0.019306697
-0.053811807 -0.06440672 -0.11699162 -0.018711876 -0.064881556 -0.0011556536 -0.07627652 0.008051606
-0.11755093 -0.06971466 0.29304934 -0.10576989 -0.007984105 -0.000677432 -0.112979695 -0.00081130903
-0.050253246 0.026947033 -0.0025104096 0.0033176523 0.023104366 -0.04126652 0.28268024 0.030566437
-0.035022873 -0.02268172 -0.02257877 -0.033403818 0.050630867 0.0003507898 0.07188563 0.019007256
0.016193448 0.003150662 0.09389844 -0.024101937 -0.03105325 -0.06284296 -0.015083476 -0.029332737
-0.071318164 -0.050895832 0.049282875 -0.037108228 0.012156538 -0.013448904 -0.01841877 0.04740757
0.0116079915 -0.0038223974 -0.051250484 -0.06363852 -0.10880878 0.12430993 -0.023925802 0.071772665
-0.03005172 -0.011523011 0.030465057 -0.026346061 -0.29860604 0.07193835 0.21981595 0.04071117
-0.008190392 -0.077437714 -0.04479904 -0.0049353 -0.044671126 0.060490366 -0.0008580008 -0.034885008
-0.04573096 0.2573032 -0.22907996 -0.0067207157 -0.012338172 -0.009451735 -0.06481573 -0.07947595
-0.10783987 0.10871066 0.108343184 0.29227856 0.017224528 -0.030862182 0.09824075 -0.052865148
-0.09797068 -0.45373118 0.8055716 -0.2325534 -0.050185733 -0.06487528 -0.08074885 -0.07045906
0.00790047 0.075114444 -0.09765729 -0.30930835 -0.026246374 -0.042006765 0.0021817356 0.0495765
-0.1540406 -0.2311408 -0.5382882 -0.036832556 0.017686134 0.07146008 -0.05770663 -0.04071268
-0.002589739 0.008020679 0.019935122 -0.06925003 -0.0907656 -0.108291395 -0.32289493 0.10225751
0.095587045 -0.0047110626 -0.23389429 -0.06479837 -0.078048125 0.0066339043 0.07647295 0.056906953
0.0042329715 0.061007522 0.04366157 -0.07826198 0.08517353 -0.032211833 -0.1021937 -0.06406303
-0.056439556 0.0015666567 0.012414507 -0.050793678 -0.10644669 0.035948813 -0.148994 0.006902712
-0.049765103 -0.0020770784 0.00384257 -0.054445323 -0.060784858 0.004929726 -0.0099979155 -0.08151543
-0.007173034 -0.044675067 0.0011208296 -0.024458172 0.0037718443 -0.057390835 -0.006133859 -0.08234132
-0.016492417 0.115338326 -0.03451726 0.06550496 0.04982092 -0.05670093 -0.08696139 -0.068439156
0.14779577 0.13037722 0.2891833 -0.033316698 0.096945494 -0.056487326 0.17242561 0.00047376595
0.0395074 0.016579013 -0.012184326 0.044671398 0.0003261633 -0.0072053303 0.019245759 -0.0966413
0.057186544 0.147452 0.30027083 0.03866488 0.042067956 -0.030190855 -0.031567357 -0.07220914
-0.05626245 0.05962457 -0.13450776 -0.07261278 0.194604 0.09797671 0.20634589 0.021862997
-0.11706658 0.3733004 -0.2593279 0.07846448 -0.073678516 -0.06363858 0.01031558 -0.02170193
0.07201649 -0.10724926 -0.03439278 -0.042726435 -0.14276057 0.009071329 -0.22417137 0.021473182
0.0020450687 0.3582317 -0.01815838 0.15036342 -0.05851718 -0.012333535 -0.021670204 0.08438957

up1.0.bias f4 [16]
00000000: b1f9 453e 5669 d53e 3064 0d3f 6776 313d
00000010: 6098 bf3d da43 a03e 38a8 79bc 86ea 763e
00000020: f9f7 923d 1735 103d aa14 20be b4c6 cd3e
00000030: b180 273e 4d4f 983e ff3a a33c fdb5 71bc
0.19333531 0.41681927 0.55231 0.043325808 0.09355235 0.31301767 -0.01523786 0.24112901
0.07176203 0.03520688 -0.15632883 0.4019066 0.16357686 0.29748002 0.019925592 -0.014752862
